Edition2/iris_43/w_3_150_Xavier_init.npz (npz, 5308 bytes, 2 tensors)

weights f8 [3, 150]
0	0x3fb68eaef34fcef4	0.08811467590549765
1	0xbfb8fa019b09e8e8	-0.09756479296803244
2	0x3fc7749d14c00f08	0.183246264583538
3	0xbfc29f585739b280	-0.14548782595683818
4	0x3fbf1b40c76fa84c	0.12150959843680303
5	0xbfad678316e3e5dc	-0.05743035940572458
6	0xbfc50e96fbe2083d	-0.16450774477931587
7	0x3fb7703ecf3acf10	0.09155647811240564
8	0x3fc92ceaa77586cc	0.1966832463904694
9	0xbfc8dc890dac0d61	-0.19423020522672643
10	0xbfba9b93df754975	-0.10393642621537487
11	0xbf8ee247d6ce7cd0	-0.01508003353393264
12	0x3fbae5175a677aa4	0.10505815465101392
13	0x3fc7f42d6039dc30	0.1871391982892603
14	0x3fc5162f95a8a4b6	0.16473955924565126
15	0x3fa1bb8f16c27e40	0.03463408615902752
16	0xbf968f34169c41a0	-0.022030652885463575
17	0xbf97e5c2c10b73d0	-0.02333740523578226
18	0x3fb3ab43984fd458	0.07683203190374976
19	0x3fb6fab89dfa8f24	0.08976320130255694
20	0x3fb7ccc0a3ea9058	0.09296802522527636
21	0xbfa77a5f5d902f20	-0.04585550324563159
22	0x3fc694602db9e86a	0.17640306694721924
23	0x3fbdc6840a1a5ce4	0.11631036039976866
24	0xbfb88e314895fb37	-0.09591968557468254
25	0x3fabad580aaa36c8	0.054056884099833946
26	0x3fc17f414c1deb20	0.136696016470375
27	0xbfc8f41fe44a1207	-0.1949500908559829
28	0xbfc5713fd8dd6566	-0.1675185974989219
29	0x3fc8cfca2c345370	0.1938412395326412
30	0x3fbd8052e8cace94	0.11523931678203275
31	0x3fb804ad9bc57844	0.09382138302814363
32	0x3fc29307b3e374f6	0.14511200221651394
33	0xbfbb4c944e4b5866	-0.10663725768549312
34	0xbfc3ffd0f37fb195	-0.15624439134206783
35	0x3fb8a1a86d37b780	0.09621670404859906
36	0xbf8426c29e81eaf0	-0.009839554273857826
37	0x3fba5394c2f2f708	0.10283784636973448
38	0xbf76b9061a3b7280	-0.005547546232005929
39	0xbfb6b7e3e76fa22c	-0.08874344253821026
40	0xbfa7f8e41f3d585c	-0.04682076341002592
41	0x3fb1dd815ba84710	0.06978615272262467
42	0x3fb7f9df0fe2afd0	0.09365648401097748
43	0x3fc7db896f345192	0.1863872330656134
44	0x3fb2637921e59430	0.07183034017141732
45	0xbf6efa87fa69d440	-0.003781571943643175
46	0xbfc2d69b1041b204	-0.14717424672871016
47	0x3f58dbe9bef08700	0.0015172751116172
48	0xbfa25147a2c49878	-0.03577636587060423
49	0xbfb8c7bea882cc72	-0.0967978631404536
50	0x3fa7f112a175e744	0.04676111432031729
51	0x3fc406859ede5fa6	0.15644903428323892
52	0x3fb0fbb67933d2b8	0.06634083231967736
53	0x3f9ec36fb60e5398	0.030042405592741156
54	0x3fae286a1b44f9c0	0.05890208800200325
55	0x3fc75fe1fed86214	0.1826136106835895
56	0x3fc278ce7fbfdefc	0.14431172597664232
57	0x3fbcaa8b09908bf0	0.11197728141318897
58	0xbfb327068d17aad4	-0.07481423325195219
59	0xbfb7203b6892a471	-0.09033557227179913
60	0x3fc72fe9b8dba7bc	0.1811496880175677
61	0x3f7aac9c9e8d8c00	0.0065122716849570494
62	0xbfa0bea0607e0104	-0.0327043645656904
63	0x3fac28b1aa8b2e40	0.05499797064620937
64	0x3fb33765486bd1b0	0.07506402032942705
65	0x3fbb38de62432e2c	0.1063364972971434
66	0xbf972d17f475de60	-0.022632955833130075
67	0x3fc6e12ff800f3da	0.1787471734004658
68	0x3f8a9913c5be12c0	0.01298728415691508
69	0xbfb2e739527ca9d1	-0.07384069694368313
70	0xbfbe0f6b02ad745e	-0.11742276015634576
71	0x3fc89adf15a8d51e	0.19222630078881137
72	0xbf8a1627bf428370	-0.012737570308958474
73	0x3fb4934186989564	0.08037194763217809
74	0xbfc18291cbda2fcd	-0.13679716542935552
75	0x3fb76bd941e48fc4	0.09148938997947115
76	0x3fb04830f3d40c7c	0.06360155060615286
77	0x3fb7f8c5a1b968dc	0.09363970945688344
78	0x3fc49e09ed8653f2	0.1610729608334221
79	0x3fbdbd5ac2d1a5ac	0.11617057091066013
80	0xbfa54c5b789d14bc	-0.041598185036983065
81	0x3fc566c35f17fad8	0.1671985830616538
82	0xbfc745a3dc61ff1a	-0.18181274662855956
83	0x3fbdd7faeef7f064	0.11657684644882377
84	0x3fc122378be275da	0.13385671930602322
85	0x3f91010486b691d8	0.016605444643248507
86	0x3faa6fe9f5e93c94	0.05163508536190267
87	0x3fc7f3ecef82cfe8	0.18713151640770254
88	0xbfa4cbbd7333a150	-0.0406169131400157
89	0x3f56f81664c01e80	0.001401922100741887
90	0xbf802e3a0f10b200	-0.00790067060923949
91	0x3fb548ad692b7568	0.08314021890278911
92	0xbfc873fdf47e517d	-0.19103979528575712
93	0xbfc61f8eeac9d4cf	-0.1728380819728614
94	0xbfc36af13ff4f917	-0.15170112250229614
95	0x3fc0c63fa6422232	0.13105006807406167
96	0xbfb3a5508e9103d7	-0.0767412517607363
97	0x3fa6f955b5721af0	0.0448710235587465
98	0x3f95b7f562371f38	0.021209558600985917
99	0x3fbd1d1f2dd41c54	0.11372561329709302
100	0x3fc07593f12eba3c	0.128588192715556
101	0x3fc02ec2aca197f0	0.12642701558360114
102	0xbfc67bf9ddf27a52	-0.1756584485746822
103	0x3fc3c9ca9e10e9f4	0.15459568708486382
104	0x3fc6e73fc4271ffe	0.17893216207289692
105	0xbfbc46aa62ee9aa7	-0.11045327105839907
106	0x3fbbe13c04de27e4	0.10890555495112114
107	0xbfa1340a281b79b4	-0.03360015620795612
108	0xbf8d76cd13da6ec0	-0.014386751335499937
109	0x3fb2645d11f73654	0.07184392632117326
110	0x3fc5f0a01702ddda	0.17140580295175206
111	0x3fc220828395ce62	0.1416171209817661
112	0x3fc73a9499de3708	0.18147523415648714
113	0x3fab17a8f4db1bd8	0.05291488636935754
114	0xbfc5f88d0297de5a	-0.17164766909239654
115	0x3fc2d4296b6da048	0.14709966416853804
116	0xbfac3681e5bc78cc	-0.05510335854909129
117	0x3fac47ea69a4d5e0	0.055236173053724746
118	0x3fc4a741fff5a862	0.1613543033411729
119	0x3f66df30368609c0	0.0027919713649577627
120	0x3fc23653c6cf9dc0	0.1422829361683693
121	0x3fc92f8a72feb876	0.19676333060255374
122	0x3fc945232f4ae3a6	0.19742240723806254
123	0xbfb4a40f27d0673a	-0.08062834474585837
124	0xbfb90c355a35c359	-0.09784253551857826
125	0xbfbc9d6ac83afd32	-0.11177699459493765
126	0xbf8b1f7f75753c50	-0.013243671199829304
127	0x3fc3185e381d1f34	0.14918115367822227
128	0xbf98f01943ccd460	-0.024353403819265984
129	0xbfbcd2302679d38a	-0.11258221568443907
130	0xbf657ba3025e6400	-0.002622431161352967
131	0x3fc58c219d649110	0.16833896813580695
132	0xbfc39f369753323c	-0.15329630268969818
133	0xbfa703db9c369894	-0.04495130807781425
134	0xbfa48845072881e0	-0.0401021548498226
135	0xbfb378b71da7a520	-0.07606071924205482
136	0xbfc68fb74bbb813e	-0.17626086423752868
137	0xbfbd3fd3afc8c43b	-0.11425517121894384
138	0x3fc626ce2b4984f4	0.17305924523956373
139	0xbfba5522165df674	-0.10286152883596761
140	0xbfc89838cf57428a	-0.19214544414582618
141	0xbf9df90f68be5da8	-0.02927040173343945
142	0x3fa89c938fbb0cb8	0.04806958322071736
143	0xbfac2bb05ac419b0	-0.05502081974013906
144	0x3fc744563f79fc82	0.18177297686995436
145	0xbfc1a4be480ed4d4	-0.13784006613210542
146	0x3fc6e2d74fb28acc	0.17879763976551144
147	0xbf815f41447a9bb0	-0.008482465650855392
148	0x3fbf2bbf3dc0b71c	0.12176127679478238
149	0x3faaf4e6bba6d068	0.052649698645297616
150	0xbfc041c296b7f937	-0.1270068393641368
151	0xbfc776c5de167ab6	-0.18331216186648697
152	0x3fc6a437f54d7ff4	0.17688655355141203
153	0x3fc3c7c43498a168	0.15453388755964714
154	0x3fb76cc1574cf118	0.09150322324143578
155	0xbf90bb2a64a3ea60	-0.016338980095478184
156	0xbfa0393260bc938c	-0.03168637686602613
157	0x3fc1325211db59e8	0.13434816238323255
158	0xbf7a491434197c20	-0.006417349739051864
159	0xbfa3c73cd0cd2fe4	-0.03862943695875723
160	0xbfa841ee56dbfe34	-0.047378013709018424
161	0x3fc6a235421ec572	0.17682519653821377
162	0x3faeff8b10e48ed0	0.06054339009486187
163	0xbfc0c356076fcdf6	-0.13096118319627664
164	0x3fb84184475fe614	0.09474970572036795
165	0xbfa84ac55a3145d4	-0.0474454567526085
166	0x3fbf1a9db8ee7d28	0.12149987950259755
167	0xbfa9d5a7362f1970	-0.050458169330840685
168	0xbfbdb81ef3e22da5	-0.11609071211039763
169	0xbf6e9059a7fa9e80	-0.0037309409234074775
170	0xbfbf322eb6273c7e	-0.12185947367764702
171	0xbfc001b80df02462	-0.12505245857781505
172	0xbfb433bb53b4f772	-0.07891436380029207
173	0x3fa2b09c693ea3bc	0.03650368485188646
174	0xbf5933d11c745800	-0.001538233003719025
175	0x3fc51f55c21e223c	0.16501876810458949
176	0x3fadc8258423a070	0.05816762197520198
177	0xbfc2bbdb8d593ace	-0.14635795976433602
178	0x3fbfe83bc58054e8	0.12463735172089552
179	0xbfbd1dd1a207f9bb	-0.11373624997938851
180	0xbfc73b9ecc039e45	-0.18150696717860818
181	0xbfae7f2118132a14	-0.05956366938479021
182	0x3fb402061dc3a8d0	0.07815588213603353
183	0xbfb8011cfed4ec19	-0.09376698705175136
184	0xbfb244589a106bb6	-0.07135537873584394
185	0x3fc736bdf03f6a72	0.18135809164853672
186	0x3fc889d22180e328	0.19170595775519783
187	0x3fababf1674c5710	0.054046195850032785
188	0x3fb9a4805e628fbc	0.10016634277650288
189	0x3fc76f09d072e964	0.18307612112205185
190	0x3fc07aabb5a35dea	0.12874361390161876
191	0xbfbc5d7398e4d9ff	-0.11080095751535878
192	0xbfba8daddaca2b0d	-0.10372435180230984
193	0xbfb331707c8277f5	-0.07497313537393764
194	0x3fc85c134e87880e	0.19030991873211217
195	0x3fac267cc14f6c48	0.054981134984438074
196	0x3fc4870e51f04cb6	0.1603715801325955
197	0xbfc8a75365f5b5cb	-0.19260637739664185
198	0x3fbb0a8a3f013d18	0.1056295780010611
199	0xbfc91ff3727fd882	-0.19628756609717263
200	0xbfc7273c690ad711	-0.18088488701840125
201	0xbfc919d637ac7809	-0.19610097616617875
202	0xbfbdb6740757e06f	-0.11606526545790684
203	0xbfb14a559cded94c	-0.06754050330969114
204	0x3fc74d4d72dbe086	0.18204658611626118
205	0x3fc4ba7ef6656978	0.1619414046388774
206	0x3fa12362ec9cd3ac	0.03347310198152029
207	0x3fbf9577ced68844	0.12337445068126934
208	0xbfc7b80aa6b67f0f	-0.18530400409962808
209	0x3fb9f688775e1f88	0.10141804613351557
210	0xbfc513fd55b46cf0	-0.1646725338440329
211	0xbfc068613472b142	-0.12818541584909765
212	0x3fc5c9ca4550739c	0.1702206457565837
213	0xbfb851cc113f7dc3	-0.09499812527746258
214	0x3fbdfeaa84b22664	0.11716714610715823
215	0x3f87fe301f4b76e0	0.011715293841401075
216	0x3fb46c7cb71b5cdc	0.0797803828275962
217	0x3fb3538ae2994ba0	0.07549350769231333
218	0xbf832a0a508820b0	-0.009357529242166457
219	0x3fb630e97717887c	0.08668383748548253
220	0xbfb89f9095d28581	-0.09618476541301925
221	0xbfb20fab755ab8c0	-0.07055160155389029
222	0x3fbe4fc7e38084b8	0.11840485862969075
223	0xbfc6c6c50504a44b	-0.17794096703554127
224	0xbfb7f44fc0876765	-0.09357164812481995
225	0xbfbd9bcd7d4de724	-0.11565861043154918
226	0xbfbc23c2d783782f	-0.1099206710964331
227	0x3fb069d281ab14e0	0.06411472001771612
228	0xbfc31c4a42101c44	-0.1493008444378764
229	0xbfa58597e51e58b8	-0.04203486129624551
230	0x3fa6d542de3b0fc4	0.04459580385949338
231	0xbfb22dfa9de50578	-0.07101408343171112
232	0xbfb2aeda0763cb5c	-0.072980524830013
233	0x3fa58f4cbab76430	0.04210891513111681
234	0x3fc0e446f382eace	0.13196646585659838
235	0xbfa0dc0961141b5c	-0.032928746319206254
236	0xbfc6e656abc03cb4	-0.17890437494540878
237	0x3fc37ff4bb28b266	0.1523424066412133
238	0x3fc2b4b0a56a860e	0.14613922192533874
239	0xbfaadcf34b6fc530	-0.05246696754319158
240	0x3fab56fbbea1a720	0.053398005505029156
241	0xbf929cf4d75ab7f0	-0.018176866192042895
242	0x3fb5796e84e6a660	0.08388415093090762
243	0xbfc2c64e7d92ed7c	-0.14667683726825576
244	0xbfc4ea9d1fd2c071	-0.16340984395856453
245	0x3fc727104c3453e6	0.18087962838094923
246	0x3fc31d3c2ce8860e	0.14932968323505275
247	0xbfc16f28ae7df3bf	-0.13620480079762662
248	0xbfc199121bb0ce80	-0.13748384811480108
249	0xbfa92fbb889cba04	-0.049192295481010034
250	0xbfc2f85fed4c5753	-0.1482047947580961
251	0x3fc3014260f995dc	0.1484759305487121
252	0x3fc4bcb9a577a33c	0.1620094354577989
253	0xbfc699346d6340a4	-0.1765504392738012
254	0x3fc5d617120d918e	0.17059601193899393
255	0x3fc3263375f2b284	0.14960330256635157

bias f8 [1, 150]
0	0x0000000000000000	0.0
1	0x0000000000000000	0.0
2	0x0000000000000000	0.0
3	0x0000000000000000	0.0
4	0x0000000000000000	0.0
5	0x0000000000000000	0.0
6	0x0000000000000000	0.0
7	0x0000000000000000	0.0
8	0x0000000000000000	0.0
9	0x0000000000000000	0.0
10	0x0000000000000000	0.0
11	0x0000000000000000	0.0
12	0x0000000000000000	0.0
13	0x0000000000000000	0.0
14	0x0000000000000000	0.0
15	0x0000000000000000	0.0
16	0x0000000000000000	0.0
17	0x0000000000000000	0.0
18	0x0000000000000000	0.0
19	0x0000000000000000	0.0
20	0x0000000000000000	0.0
21	0x0000000000000000	0.0
22	0x0000000000000000	0.0
23	0x0000000000000000	0.0
24	0x0000000000000000	0.0
25	0x0000000000000000	0.0
26	0x0000000000000000	0.0
27	0x0000000000000000	0.0
28	0x0000000000000000	0.0
29	0x0000000000000000	0.0
30	0x0000000000000000	0.0
31	0x0000000000000000	0.0
32	0x0000000000000000	0.0
33	0x0000000000000000	0.0
34	0x0000000000000000	0.0
35	0x0000000000000000	0.0
36	0x0000000000000000	0.0
37	0x0000000000000000	0.0
38	0x0000000000000000	0.0
39	0x0000000000000000	0.0
40	0x0000000000000000	0.0
41	0x0000000000000000	0.0
42	0x0000000000000000	0.0
43	0x0000000000000000	0.0
44	0x0000000000000000	0.0
45	0x0000000000000000	0.0
46	0x0000000000000000	0.0
47	0x0000000000000000	0.0
48	0x0000000000000000	0.0
49	0x0000000000000000	0.0
50	0x0000000000000000	0.0
51	0x0000000000000000	0.0
52	0x0000000000000000	0.0
53	0x0000000000000000	0.0
54	0x0000000000000000	0.0
55	0x0000000000000000	0.0
56	0x0000000000000000	0.0
57	0x0000000000000000	0.0
58	0x0000000000000000	0.0
59	0x0000000000000000	0.0
60	0x0000000000000000	0.0
61	0x0000000000000000	0.0
62	0x0000000000000000	0.0
63	0x0000000000000000	0.0
64	0x0000000000000000	0.0
65	0x0000000000000000	0.0
66	0x0000000000000000	0.0
67	0x0000000000000000	0.0
68	0x0000000000000000	0.0
69	0x0000000000000000	0.0
70	0x0000000000000000	0.0
71	0x0000000000000000	0.0
72	0x0000000000000000	0.0
73	0x0000000000000000	0.0
74	0x0000000000000000	0.0
75	0x0000000000000000	0.0
76	0x0000000000000000	0.0
77	0x0000000000000000	0.0
78	0x0000000000000000	0.0
79	0x0000000000000000	0.0
80	0x0000000000000000	0.0
81	0x0000000000000000	0.0
82	0x0000000000000000	0.0
83	0x0000000000000000	0.0
84	0x0000000000000000	0.0
85	0x0000000000000000	0.0
86	0x0000000000000000	0.0
87	0x0000000000000000	0.0
88	0x0000000000000000	0.0
89	0x0000000000000000	0.0
90	0x0000000000000000	0.0
91	0x0000000000000000	0.0
92	0x0000000000000000	0.0
93	0x0000000000000000	0.0
94	0x0000000000000000	0.0
95	0x0000000000000000	0.0
96	0x0000000000000000	0.0
97	0x0000000000000000	0.0
98	0x0000000000000000	0.0
99	0x0000000000000000	0.0
100	0x0000000000000000	0.0
101	0x0000000000000000	0.0
102	0x0000000000000000	0.0
103	0x0000000000000000	0.0
104	0x0000000000000000	0.0
105	0x0000000000000000	0.0
106	0x0000000000000000	0.0
107	0x0000000000000000	0.0
108	0x0000000000000000	0.0
109	0x0000000000000000	0.0
110	0x0000000000000000	0.0
111	0x0000000000000000	0.0
112	0x0000000000000000	0.0
113	0x0000000000000000	0.0
114	0x0000000000000000	0.0
115	0x0000000000000000	0.0
116	0x0000000000000000	0.0
117	0x0000000000000000	0.0
118	0x0000000000000000	0.0
119	0x0000000000000000	0.0
120	0x0000000000000000	0.0
121	0x0000000000000000	0.0
122	0x0000000000000000	0.0
123	0x0000000000000000	0.0
124	0x0000000000000000	0.0
125	0x0000000000000000	0.0
126	0x0000000000000000	0.0
127	0x0000000000000000	0.0
128	0x0000000000000000	0.0
129	0x0000000000000000	0.0
130	0x0000000000000000	0.0
131	0x0000000000000000	0.0
132	0x0000000000000000	0.0
133	0x0000000000000000	0.0
134	0x0000000000000000	0.0
135	0x0000000000000000	0.0
136	0x0000000000000000	0.0
137	0x0000000000000000	0.0
138	0x0000000000000000	0.0
139	0x0000000000000000	0.0
140	0x0000000000000000	0.0
141	0x0000000000000000	0.0
142	0x0000000000000000	0.0
143	0x0000000000000000	0.0
144	0x0000000000000000	0.0
145	0x0000000000000000	0.0
146	0x0000000000000000	0.0
147	0x0000000000000000	0.0
148	0x0000000000000000	0.0
149	0x0000000000000000	0.0
